…
('Train drivers: ', ['p002', 'p012', 'p014', 'p015', 'p016', 'p021', 'p022', 'p024', 'p026', 'p035', 'p039', 'p041', 'p042', 'p045', 'p047', 'p049', 'p050', 'p051', 'p052', 'p056', 'p061', 'p064', 'p066', 'p072', 'p075'])
('Test drivers: ', ['p081'])
--------------------------------------------------------------------------------
Initial input shape: (None, 3, 48, 64)
--------------------------------------------------------------------------------
Layer (name)                  Output Shape                  Param #             
--------------------------------------------------------------------------------
ZeroPadding2D (zeropadding2d) (None, 3, 50, 66)             0                   
Convolution2D (convolution2d) (None, 64, 48, 64)            1792                
ZeroPadding2D (zeropadding2d) (None, 64, 50, 66)            0                   
Convolution2D (convolution2d) (None, 64, 48, 64)            36928               
MaxPooling2D (maxpooling2d)   (None, 64, 24, 32)            0                   
ZeroPadding2D (zeropadding2d) (None, 64, 26, 34)            0                   
Convolution2D (convolution2d) (None, 128, 24, 32)           73856               
ZeroPadding2D (zeropadding2d) (None, 128, 26, 34)           0                   
Convolution2D (convolution2d) (None, 128, 24, 32)           147584              
MaxPooling2D (maxpooling2d)   (None, 128, 12, 16)           0                   
ZeroPadding2D (zeropadding2d) (None, 128, 14, 18)           0                   
Convolution2D (convolution2d) (None, 256, 12, 16)           295168              
ZeroPadding2D (zeropadding2d) (None, 256, 14, 18)           0                   
Convolution2D (convolution2d) (None, 256, 12, 16)           590080              
ZeroPadding2D (zeropadding2d) (None, 256, 14, 18)           0                   
Convolution2D (convolution2d) (None, 256, 12, 16)           590080              
MaxPooling2D (maxpooling2d)   (None, 256, 6, 8)             0                   
ZeroPadding2D (zeropadding2d) (None, 256, 8, 10)            0                   
Convolution2D (convolution2d) (None, 512, 6, 8)             1180160             
ZeroPadding2D (zeropadding2d) (None, 512, 8, 10)            0                   
Convolution2D (convolution2d) (None, 512, 6, 8)             2359808             
ZeroPadding2D (zeropadding2d) (None, 512, 8, 10)            0                   
Convolution2D (convolution2d) (None, 512, 6, 8)             2359808             
MaxPooling2D (maxpooling2d)   (None, 512, 3, 4)             0                   
ZeroPadding2D (zeropadding2d) (None, 512, 5, 6)             0                   
Convolution2D (convolution2d) (None, 512, 3, 4)             2359808             
ZeroPadding2D (zeropadding2d) (None, 512, 5, 6)             0                   
Convolution2D (convolution2d) (None, 512, 3, 4)             2359808             
ZeroPadding2D (zeropadding2d) (None, 512, 5, 6)             0                   
Convolution2D (convolution2d) (None, 512, 3, 4)             2359808             
MaxPooling2D (maxpooling2d)   (None, 512, 1, 2)             0                   
--------------------------------------------------------------------------------
Total params: 14714688
--------------------------------------------------------------------------------
Train on 17280 samples, validate on 4321 samples
Epoch 1/10
   64/17280 [..............................] - ETA: 113s - loss: 2.3279 - acc: 0.0781
…
