…
('Train drivers: ', ['p002', 'p012', 'p014', 'p015', 'p016', 'p021', 'p022', 'p024', 'p026', 'p035', 'p039', 'p041', 'p042', 'p045', 'p047', 'p049', 'p050', 'p051', 'p052', 'p056', 'p061', 'p064', 'p066', 'p072', 'p075'])
('Test drivers: ', ['p081'])
--------------------------------------------------------------------------------
Initial input shape: (None, 3, 224, 224)
--------------------------------------------------------------------------------
Layer (name)                  Output Shape                  Param #             
--------------------------------------------------------------------------------
ZeroPadding2D (zeropadding2d) (None, 3, 226, 226)           0                   
Convolution2D (convolution2d) (None, 64, 224, 224)          1792                
ZeroPadding2D (zeropadding2d) (None, 64, 226, 226)          0                   
Convolution2D (convolution2d) (None, 64, 224, 224)          36928               
MaxPooling2D (maxpooling2d)   (None, 64, 112, 112)          0                   
ZeroPadding2D (zeropadding2d) (None, 64, 114, 114)          0                   
Convolution2D (convolution2d) (None, 128, 112, 112)         73856               
ZeroPadding2D (zeropadding2d) (None, 128, 114, 114)         0                   
Convolution2D (convolution2d) (None, 128, 112, 112)         147584              
MaxPooling2D (maxpooling2d)   (None, 128, 56, 56)           0                   
ZeroPadding2D (zeropadding2d) (None, 128, 58, 58)           0                   
Convolution2D (convolution2d) (None, 256, 56, 56)           295168              
ZeroPadding2D (zeropadding2d) (None, 256, 58, 58)           0                   
Convolution2D (convolution2d) (None, 256, 56, 56)           590080              
ZeroPadding2D (zeropadding2d) (None, 256, 58, 58)           0                   
Convolution2D (convolution2d) (None, 256, 56, 56)           590080              
MaxPooling2D (maxpooling2d)   (None, 256, 28, 28)           0                   
ZeroPadding2D (zeropadding2d) (None, 256, 30, 30)           0                   
Convolution2D (convolution2d) (None, 512, 28, 28)           1180160             
ZeroPadding2D (zeropadding2d) (None, 512, 30, 30)           0                   
Convolution2D (convolution2d) (None, 512, 28, 28)           2359808             
ZeroPadding2D (zeropadding2d) (None, 512, 30, 30)           0                   
Convolution2D (convolution2d) (None, 512, 28, 28)           2359808             
MaxPooling2D (maxpooling2d)   (None, 512, 14, 14)           0                   
ZeroPadding2D (zeropadding2d) (None, 512, 16, 16)           0                   
Convolution2D (convolution2d) (None, 512, 14, 14)           2359808             
ZeroPadding2D (zeropadding2d) (None, 512, 16, 16)           0                   
Convolution2D (convolution2d) (None, 512, 14, 14)           2359808             
ZeroPadding2D (zeropadding2d) (None, 512, 16, 16)           0                   
Convolution2D (convolution2d) (None, 512, 14, 14)           2359808             
MaxPooling2D (maxpooling2d)   (None, 512, 7, 7)             0                   
--------------------------------------------------------------------------------
Total params: 14714688
--------------------------------------------------------------------------------
Train on 1122 samples, validate on 281 samples
Epoch 1/10
  64/1122 [>.............................] - ETA: 85s - loss: 2.8182 - acc: 0.1719
…
